…
12-28 03:36:11,457 - Model - INFO - PARAMETER ...
2022-12-28 03:36:11,458 - Model - INFO - Namespace(batch_size=26, cuda_ops=True, decay_rate=0.0001, epoch=300, gpu='0', learning_rate=0.001, log_dir=None, lr_decay=0.5, model='pointnet2_part_seg_msg', normal=False, npoint=2048, optimizer='SGD', scheduler='cos', step_size=20)
2022-12-28 03:36:11,630 - Model - INFO - The number of training data is: 13998
2022-12-28 03:36:11,630 - Model - INFO - The number of test data is: 2874
2022-12-28 03:36:13,209 - Model - INFO - ('surface_constructor', UmbrellaSurfaceConstructor(
  (mlps): Sequential(
    (0): Conv2d(10, 10, kernel_size=(1, 1), stride=(1, 1), bias=False)
    (1): BatchNorm2d(10, eps=1e-05, momentum=0.1, affine=True, track_running_stats=True)
    (2): ReLU(inplace=True)
    (3): Conv2d(10, 10, kernel_size=(1, 1), stride=(1, 1))
    (4): BatchNorm2d(10, eps=1e-05, momentum=0.1, affine=True, track_running_stats=True)
    (5): ReLU(inplace=True)
    (6): Conv2d(10, 10, kernel_size=(1, 1), stride=(1, 1))
  )
))
2022-12-28 03:36:13,210 - Model - INFO - ('keepHigh', KeepHighResolutionModulePartSeg(
  (start): Linear(
    (linear): Linear(in_features=3, out_features=32, bias=True)
    (norm1): LayerNorm((32,), eps=1e-05, elementwise_affine=True)
    (norm2): BatchNorm1d(32, eps=1e-05, momentum=0.1, affine=True, track_running_stats=True)
    (act): LeakyReLU(negative_slope=0.2)
  )
  (la0): LocalMerge(
    (fc2): Linear(
      (linear): Linear(in_features=192, out_features=64, bias=True)
      (norm1): LayerNorm((64,), eps=1e-05, elementwise_affine=True)
      (norm2): BatchNorm1d(64, eps=1e-05, momentum=0.1, affine=True, track_running_stats=True)
      (act): LeakyReLU(negative_slope=0.2)
    )
    (xyz_Trans): LocalTrans(
      (q): Linear(in_features=3, out_features=64, bias=True)
      (k): Linear(in_features=3, out_features=64, bias=True)
      (v): Linear(in_features=3, out_features=64, bias=True)
      (conv_res): Linear(
        (linear): Linear(in_features=3, out_features=64, bias=True)
        (norm1): LayerNorm((64,), eps=1e-05, elementwise_affine=True)
        (norm2): BatchNorm1d(64, eps=1e-05, momentum=0.1, affine=True, track_running_stats=True)
        (act): LeakyReLU(negative_slope=0.2)
      )
      (ffn): Linear(
        (linear): Linear(in_features=64, out_features=64, bias=True)
        (norm1): LayerNorm((64,), eps=1e-05, elementwise_affine=True)
        (norm2): BatchNorm1d(64, eps=1e-05, momentum=0.1, affine=True, track_running_stats=True)
        (act): LeakyReLU(negative_slope=0.2)
      )
      (tanh): Tanh()
    )
    (normal_Trans): LocalTrans(
      (q): Linear(in_features=10, out_features=64, bias=True)
      (k): Linear(in_features=10, out_features=64, bias=True)
      (v): Linear(in_features=10, out_features=64, bias=True)
      (conv_res): Linear(
        (linear): Linear(in_features=10, out_features=64, bias=True)
        (norm1): LayerNorm((64,), eps=1e-05, elementwise_affine=True)
        (norm2): BatchNorm1d(64, eps=1e-05, momentum=0.1, affine=True, track_running_stats=True)
        (act): LeakyReLU(negative_slope=0.2)
      )
      (ffn): Linear(
        (linear): Linear(in_features=64, out_features=64, bias=True)
        (norm1): LayerNorm((64,), eps=1e-05, elementwise_affine=True)
        (norm2): BatchNorm1d(64, eps=1e-05, momentum=0.1, affine=True, track_running_stats=True)
        (act): LeakyReLU(negative_slope=0.2)
      )
      (tanh): Tanh()
    )
    (feature_Trans1): LocalTrans(
      (q): Linear(in_features=32, out_features=64, bias=True)
      (k): Linear(in_features=32, out_features=64, bias=True)
      (v): Linear(in_features=32, out_features=64, bias=True)
      (conv_res): Linear(
        (linear): Linear(in_features=32, out_features=64, bias=True)
        (norm1): LayerNorm((64,), eps=1e-05, elementwise_affine=True)
        (norm2): BatchNorm1d(64, eps=1e-05, momentum=0.1, affine=True, track_running_stats=True)
        (act): LeakyReLU(negative_slope=0.2)
      )
      (ffn): Linear(
        (linear): Linear(in_features=64, out_features=64, bias=True)
        (norm1): LayerNorm((64,), eps=1e-05, elementwise_affine=True)
        (norm2): BatchNorm1d(64, eps=1e-05, momentum=0.1, affine=True, track_running_stats=True)
        (act): LeakyReLU(negative_slope=0.2)
      )
      (tanh): Tanh()
    )
    (feature_Trans2): LocalTrans(
      (q): Linear(in_features=32, out_features=64, bias=True)
      (k): Linear(in_features=32, out_features=64, bias=True)
      (v): Linear(in_features=32, out_features=64, bias=True)
      (conv_res): Linear(
        (linear): Linear(in_features=32, out_features=64, bias=True)
        (norm1): LayerNorm((64,), eps=1e-05, elementwise_affine=True)
        (norm2): BatchNorm1d(64, eps=1e-05, momentum=0.1, affine=True, track_running_stats=True)
        (act): LeakyReLU(negative_slope=0.2)
      )
      (ffn): Linear(
        (linear): Linear(in_features=64, out_features=64, bias=True)
        (norm1): LayerNorm((64,), eps=1e-05, elementwise_affine=True)
        (norm2): BatchNorm1d(64, eps=1e-05, momentum=0.1, affine=True, track_running_stats=True)
        (act): LeakyReLU(negative_slope=0.2)
      )
      (tanh): Tanh()
    )
  )
  (la1): LocalMerge(
    (fc2): Linear(
      (linear): Linear(in_features=192, out_features=64, bias=True)
      (norm1): LayerNorm((64,), eps=1e-05, elementwise_affine=True)
      (norm2): BatchNorm1d(64, eps=1e-05, momentum=0.1, affine=True, track_running_stats=True)
      (act): LeakyReLU(negative_slope=0.2)
    )
    (xyz_Trans): LocalTrans(
      (q): Linear(in_features=3, out_features=64, bias=True)
      (k): Linear(in_features=3, out_features=64, bias=True)
      (v): Linear(in_features=3, out_features=64, bias=True)
      (conv_res): Linear(
        (linear): Linear(in_features=3, out_features=64, bias=True)
        (norm1): LayerNorm((64,), eps=1e-05, elementwise_affine=True)
        (norm2): BatchNorm1d(64, eps=1e-05, momentum=0.1, affine=True, track_running_stats=True)
        (act): LeakyReLU(negative_slope=0.2)
      )
      (ffn): Linear(
        (linear): Linear(in_features=64, out_features=64, bias=True)
        (norm1): LayerNorm((64,), eps=1e-05, elementwise_affine=True)
        (norm2): BatchNorm1d(64, eps=1e-05, momentum=0.1, affine=True, track_running_stats=True)
        (act): LeakyReLU(negative_slope=0.2)
      )
      (tanh): Tanh()
    )
    (normal_Trans): LocalTrans(
      (q): Linear(in_features=10, out_features=64, bias=True)
      (k): Linear(in_features=10, out_features=64, bias=True)
      (v): Linear(in_features=10, out_features=64, bias=True)
      (conv_res): Linear(
        (linear): Linear(in_features=10, out_features=64, bias=True)
        (norm1): LayerNorm((64,), eps=1e-05, elementwise_affine=True)
        (norm2): BatchNorm1d(64, eps=1e-05, momentum=0.1, affine=True, track_running_stats=True)
        (act): LeakyReLU(negative_slope=0.2)
      )
      (ffn): Linear(
        (linear): Linear(in_features=64, out_features=64, bias=True)
        (norm1): LayerNorm((64,), eps=1e-05, elementwise_affine=True)
        (norm2): BatchNorm1d(64, eps=1e-05, momentum=0.1, affine=True, track_running_stats=True)
        (act): LeakyReLU(negative_slope=0.2)
      )
      (tanh): Tanh()
    )
    (feature_Trans1): LocalTrans(
      (q): Linear(in_features=64, out_features=64, bias=True)
      (k): Linear(in_features=64, out_features=64, bias=True)
      (v): Linear(in_features=64, out_features=64, bias=True)
      (conv_res): Linear(
        (linear): Linear(in_features=64, out_features=64, bias=True)
        (norm1): LayerNorm((64,), eps=1e-05, elementwise_affine=True)
        (norm2): BatchNorm1d(64, eps=1e-05, momentum=0.1, affine=True, track_running_stats=True)
        (act): LeakyReLU(negative_slope=0.2)
      )
      (ffn): Linear(
        (linear): Linear(in_features=64, out_features=64, bias=True)
        (norm1): LayerNorm((64,), eps=1e-05, elementwise_affine=True)
        (norm2): BatchNorm1d(64, eps=1e-05, momentum=0.1, affine=True, track_running_stats=True)
        (act): LeakyReLU(negative_slope=0.2)
      )
      (tanh): Tanh()
    )
    (feature_Trans2): LocalTrans(
      (q): Linear(in_features=64, out_features=64, bias=True)
      (k): Linear(in_features=64, out_features=64, bias=True)
      (v): Linear(in_features=64, out_features=64, bias=True)
      (conv_res): Linear(
        (linear): Linear(in_features=64, out_features=64, bias=True)
        (norm1): LayerNorm((64,), eps=1e-05, elementwise_affine=True)
        (norm2): BatchNorm1d(64, eps=1e-05, momentum=0.1, affine=True, track_running_stats=True)
        (act): LeakyReLU(negative_slope=0.2)
      )
      (ffn): Linear(
        (linear): Linear(in_features=64, out_features=64, bias=True)
        (norm1): LayerNorm((64,), eps=1e-05, elementwise_affine=True)
        (norm2): BatchNorm1d(64, eps=1e-05, momentum=0.1, affine=True, track_running_stats=True)
        (act): LeakyReLU(negative_slope=0.2)
      )
      (tanh): Tanh()
    )
  )
  (la2): LocalMerge(
    (fc2): Linear(
      (linear): Linear(in_features=192, out_features=64, bias=True)
      (norm1): LayerNorm((64,), eps=1e-05, elementwise_affine=True)
      (norm2): BatchNorm1d(64, eps=1e-05, momentum=0.1, affine=True, track_running_stats=True)
      (act): LeakyReLU(negative_slope=0.2)
    )
    (xyz_Trans): LocalTrans(
      (q): Linear(in_features=3, out_features=64, bias=True)
      (k): Linear(in_features=3, out_features=64, bias=True)
      (v): Linear(in_features=3, out_features=64, bias=True)
      (conv_res): Linear(
        (linear): Linear(in_features=3, out_features=64, bias=True)
        (norm1): LayerNorm((64,), eps=1e-05, elementwise_affine=True)
        (norm2): BatchNorm1d(64, eps=1e-05, momentum=0.1, affine=True, track_running_stats=True)
        (act): LeakyReLU(negative_slope=0.2)
      )
      (ffn): Linear(
        (linear): Linear(in_features=64, out_features=64, bias=True)
        (norm1): LayerNorm((64,), eps=1e-05, elementwise_affine=True)
        (norm2): BatchNorm1d(64, eps=1e-05, momentum=0.1, affine=True, track_running_stats=True)
        (act): LeakyReLU(negative_slope=0.2)
      )
      (tanh): Tanh()
    )
    (normal_Trans): LocalTrans(
      (q): Linear(in_features=10, out_features=64, bias=True)
      (k): Linear(in_features=10, out_features=64, bias=True)
      (v): Linear(in_features=10, out_features=64, bias=True)
      (conv_res): Linear(
        (linear): Linear(in_features=10, out_features=64, bias=True)
        (norm1): LayerNorm((64,), eps=1e-05, elementwise_affine=True)
        (norm2): BatchNorm1d(64, eps=1e-05, momentum=0.1, affine=True, track_running_stats=True)
        (act): LeakyReLU(negative_slope=0.2)
      )
      (ffn): Linear(
        (linear): Linear(in_features=64, out_features=64, bias=True)
        (norm1): LayerNorm((64,), eps=1e-05, elementwise_affine=True)
        (norm2): BatchNorm1d(64, eps=1e-05, momentum=0.1, affine=True, track_running_stats=True)
        (act): LeakyReLU(negative_slope=0.2)
      )
      (tanh): Tanh()
    )
    (feature_Trans1): LocalTrans(
      (q): Linear(in_features=64, out_features=64, bias=True)
      (k): Linear(in_features=64, out_features=64, bias=True)
      (v): Linear(in_features=64, out_features=64, bias=True)
      (conv_res): Linear(
        (linear): Linear(in_features=64, out_features=64, bias=True)
        (norm1): LayerNorm((64,), eps=1e-05, elementwise_affine=True)
        (norm2): BatchNorm1d(64, eps=1e-05, momentum=0.1, affine=True, track_running_stats=True)
        (act): LeakyReLU(negative_slope=0.2)
      )
      (ffn): Linear(
        (linear): Linear(in_features=64, out_features=64, bias=True)
        (norm1): LayerNorm((64,), eps=1e-05, elementwise_affine=True)
        (norm2): BatchNorm1d(64, eps=1e-05, momentum=0.1, affine=True, track_running_stats=True)
        (act): LeakyReLU(negative_slope=0.2)
      )
      (tanh): Tanh()
    )
    (feature_Trans2): LocalTrans(
      (q): Linear(in_features=64, out_features=64, bias=True)
      (k): Linear(in_features=64, out_features=64, bias=True)
      (v): Linear(in_features=64, out_features=64, bias=True)
      (conv_res): Linear(
        (linear): Linear(in_features=64, out_features=64, bias=True)
        (norm1): LayerNorm((64,), eps=1e-05, elementwise_affine=True)
        (norm2): BatchNorm1d(64, eps=1e-05, momentum=0.1, affine=True, track_running_stats=True)
        (act): LeakyReLU(negative_slope=0.2)
      )
      (ffn): Linear(
        (linear): Linear(in_features=64, out_features=64, bias=True)
        (norm1): LayerNorm((64,), eps=1e-05, elementwise_affine=True)
        (norm2): BatchNorm1d(64, eps=1e-05, momentum=0.1, affine=True, track_running_stats=True)
        (act): LeakyReLU(negative_slope=0.2)
      )
      (tanh): Tanh()
    )
  )
  (la3): LocalMerge(
    (fc2): Linear(
      (linear): Linear(in_features=384, out_features=128, bias=True)
      (norm1): LayerNorm((128,), eps=1e-05, elementwise_affine=True)
      (norm2): BatchNorm1d(128, eps=1e-05, momentum=0.1, affine=True, track_running_stats=True)
      (act): LeakyReLU(negative_slope=0.2)
    )
    (xyz_Trans): LocalTrans(
      (q): Linear(in_features=3, out_features=128, bias=True)
      (k): Linear(in_features=3, out_features=128, bias=True)
      (v): Linear(in_features=3, out_features=128, bias=True)
      (conv_res): Linear(
        (linear): Linear(in_features=3, out_features=128, bias=True)
        (norm1): LayerNorm((128,), eps=1e-05, elementwise_affine=True)
        (norm2): BatchNorm1d(128, eps=1e-05, momentum=0.1, affine=True, track_running_stats=True)
        (act): LeakyReLU(negative_slope=0.2)
      )
      (ffn): Linear(
        (linear): Linear(in_features=128, out_features=128, bias=True)
        (norm1): LayerNorm((128,), eps=1e-05, elementwise_affine=True)
        (norm2): BatchNorm1d(128, eps=1e-05, momentum=0.1, affine=True, track_running_stats=True)
        (act): LeakyReLU(negative_slope=0.2)
      )
      (tanh): Tanh()
    )
    (normal_Trans): LocalTrans(
      (q): Linear(in_features=10, out_features=128, bias=True)
      (k): Linear(in_features=10, out_features=128, bias=True)
      (v): Linear(in_features=10, out_features=128, bias=True)
      (conv_res): Linear(
        (linear): Linear(in_features=10, out_features=128, bias=True)
        (norm1): LayerNorm((128,), eps=1e-05, elementwise_affine=True)
        (norm2): BatchNorm1d(128, eps=1e-05, momentum=0.1, affine=True, track_running_stats=True)
        (act): LeakyReLU(negative_slope=0.2)
      )
      (ffn): Linear(
        (linear): Linear(in_features=128, out_features=128, bias=True)
        (norm1): LayerNorm((128,), eps=1e-05, elementwise_affine=True)
        (norm2): BatchNorm1d(128, eps=1e-05, momentum=0.1, affine=True, track_running_stats=True)
        (act): LeakyReLU(negative_slope=0.2)
      )
      (tanh): Tanh()
    )
    (feature_Trans1): LocalTrans(
      (q): Linear(in_features=64, out_features=128, bias=True)
      (k): Linear(in_features=64, out_features=128, bias=True)
      (v): Linear(in_features=64, out_features=128, bias=True)
      (conv_res): Linear(
        (linear): Linear(in_features=64, out_features=128, bias=True)
        (norm1): LayerNorm((128,), eps=1e-05, elementwise_affine=True)
        (norm2): BatchNorm1d(128, eps=1e-05, momentum=0.1, affine=True, track_running_stats=True)
        (act): LeakyReLU(negative_slope=0.2)
      )
      (ffn): Linear(
        (linear): Linear(in_features=128, out_features=128, bias=True)
        (norm1): LayerNorm((128,), eps=1e-05, elementwise_affine=True)
        (norm2): BatchNorm1d(128, eps=1e-05, momentum=0.1, affine=True, track_running_stats=True)
        (act): LeakyReLU(negative_slope=0.2)
      )
      (tanh): Tanh()
    )
    (feature_Trans2): LocalTrans(
      (q): Linear(in_features=64, out_features=128, bias=True)
      (k): Linear(in_features=64, out_features=128, bias=True)
      (v): Linear(in_features=64, out_features=128, bias=True)
      (conv_res): Linear(
        (linear): Linear(in_features=64, out_features=128, bias=True)
        (norm1): LayerNorm((128,), eps=1e-05, elementwise_affine=True)
        (norm2): BatchNorm1d(128, eps=1e-05, momentum=0.1, affine=True, track_running_stats=True)
        (act): LeakyReLU(negative_slope=0.2)
      )
      (ffn): Linear(
        (linear): Linear(in_features=128, out_features=128, bias=True)
        (norm1): LayerNorm((128,), eps=1e-05, elementwise_affine=True)
        (norm2): BatchNorm1d(128, eps=1e-05, momentum=0.1, affine=True, track_running_stats=True)
        (act): LeakyReLU(negative_slope=0.2)
      )
      (tanh): Tanh()
    )
  )
  (la4): LocalMerge(
    (fc2): Linear(
      (linear): Linear(in_features=768, out_features=256, bias=True)
      (norm1): LayerNorm((256,), eps=1e-05, elementwise_affine=True)
      (norm2): BatchNorm1d(256, eps=1e-05, momentum=0.1, affine=True, track_running_stats=True)
      (act): LeakyReLU(negative_slope=0.2)
    )
    (xyz_Trans): LocalTrans(
      (q): Linear(in_features=3, out_features=256, bias=True)
      (k): Linear(in_features=3, out_features=256, bias=True)
      (v): Linear(in_features=3, out_features=256, bias=True)
      (conv_res): Linear(
        (linear): Linear(in_features=3, out_features=256, bias=True)
        (norm1): LayerNorm((256,), eps=1e-05, elementwise_affine=True)
        (norm2): BatchNorm1d(256, eps=1e-05, momentum=0.1, affine=True, track_running_stats=True)
        (act): LeakyReLU(negative_slope=0.2)
      )
      (ffn): Linear(
        (linear): Linear(in_features=256, out_features=256, bias=True)
        (norm1): LayerNorm((256,), eps=1e-05, elementwise_affine=True)
        (norm2): BatchNorm1d(256, eps=1e-05, momentum=0.1, affine=True, track_running_stats=True)
        (act): LeakyReLU(negative_slope=0.2)
      )
      (tanh): Tanh()
    )
    (normal_Trans): LocalTrans(
      (q): Linear(in_features=10, out_features=256, bias=True)
      (k): Linear(in_features=10, out_features=256, bias=True)
      (v): Linear(in_features=10, out_features=256, bias=True)
      (conv_res): Linear(
        (linear): Linear(in_features=10, out_features=256, bias=True)
        (norm1): LayerNorm((256,), eps=1e-05, elementwise_affine=True)
        (norm2): BatchNorm1d(256, eps=1e-05, momentum=0.1, affine=True, track_running_stats=True)
        (act): LeakyReLU(negative_slope=0.2)
      )
      (ffn): Linear(
        (linear): Linear(in_features=256, out_features=256, bias=True)
        (norm1): LayerNorm((256,), eps=1e-05, elementwise_affine=True)
        (norm2): BatchNorm1d(256, eps=1e-05, momentum=0.1, affine=True, track_running_stats=True)
        (act): LeakyReLU(negative_slope=0.2)
      )
      (tanh): Tanh()
    )
    (feature_Trans1): LocalTrans(
      (q): Linear(in_features=128, out_features=256, bias=True)
      (k): Linear(in_features=128, out_features=256, bias=True)
      (v): Linear(in_features=128, out_features=256, bias=True)
      (conv_res): Linear(
        (linear): Linear(in_features=128, out_features=256, bias=True)
        (norm1): LayerNorm((256,), eps=1e-05, elementwise_affine=True)
        (norm2): BatchNorm1d(256, eps=1e-05, momentum=0.1, affine=True, track_running_stats=True)
        (act): LeakyReLU(negative_slope=0.2)
      )
      (ffn): Linear(
        (linear): Linear(in_features=256, out_features=256, bias=True)
        (norm1): LayerNorm((256,), eps=1e-05, elementwise_affine=True)
        (norm2): BatchNorm1d(256, eps=1e-05, momentum=0.1, affine=True, track_running_stats=True)
        (act): LeakyReLU(negative_slope=0.2)
      )
      (tanh): Tanh()
    )
    (feature_Trans2): LocalTrans(
      (q): Linear(in_features=128, out_features=256, bias=True)
      (k): Linear(in_features=128, out_features=256, bias=True)
      (v): Linear(in_features=128, out_features=256, bias=True)
      (conv_res): Linear(
        (linear): Linear(in_features=128, out_features=256, bias=True)
        (norm1): LayerNorm((256,), eps=1e-05, elementwise_affine=True)
        (norm2): BatchNorm1d(256, eps=1e-05, momentum=0.1, affine=True, track_running_stats=True)
        (act): LeakyReLU(negative_slope=0.2)
      )
      (ffn): Linear(
        (linear): Linear(in_features=256, out_features=256, bias=True)
        (norm1): LayerNorm((256,), eps=1e-05, elementwise_affine=True)
        (norm2): BatchNorm1d(256, eps=1e-05, momentum=0.1, affine=True, track_running_stats=True)
        (act): LeakyReLU(negative_slope=0.2)
      )
      (tanh): Tanh()
    )
  )
  (la4_up): LocalMerge(
    (fc2): Linear(
      (linear): Linear(in_features=384, out_features=128, bias=True)
      (norm1): LayerNorm((128,), eps=1e-05, elementwise_affine=True)
      (norm2): BatchNorm1d(128, eps=1e-05, momentum=0.1, affine=True, track_running_stats=True)
      (act): LeakyReLU(negative_slope=0.2)
    )
    (xyz_Trans): LocalTrans(
      (q): Linear(in_features=3, out_features=128, bias=True)
      (k): Linear(in_features=3, out_features=128, bias=True)
      (v): Linear(in_features=3, out_features=128, bias=True)
      (conv_res): Linear(
        (linear): Linear(in_features=3, out_features=128, bias=True)
        (norm1): LayerNorm((128,), eps=1e-05, elementwise_affine=True)
        (norm2): BatchNorm1d(128, eps=1e-05, momentum=0.1, affine=True, track_running_stats=True)
        (act): LeakyReLU(negative_slope=0.2)
      )
      (ffn): Linear(
        (linear): Linear(in_features=128, out_features=128, bias=True)
        (norm1): LayerNorm((128,), eps=1e-05, elementwise_affine=True)
        (norm2): BatchNorm1d(128, eps=1e-05, momentum=0.1, affine=True, track_running_stats=True)
        (act): LeakyReLU(negative_slope=0.2)
      )
      (tanh): Tanh()
    )
    (normal_Trans): LocalTrans(
      (q): Linear(in_features=10, out_features=128, bias=True)
      (k): Linear(in_features=10, out_features=128, bias=True)
      (v): Linear(in_features=10, out_features=128, bias=True)
      (conv_res): Linear(
        (linear): Linear(in_features=10, out_features=128, bias=True)
        (norm1): LayerNorm((128,), eps=1e-05, elementwise_affine=True)
        (norm2): BatchNorm1d(128, eps=1e-05, momentum=0.1, affine=True, track_running_stats=True)
        (act): LeakyReLU(negative_slope=0.2)
      )
      (ffn): Linear(
        (linear): Linear(in_features=128, out_features=128, bias=True)
        (norm1): LayerNorm((128,), eps=1e-05, elementwise_affine=True)
        (norm2): BatchNorm1d(128, eps=1e-05, momentum=0.1, affine=True, track_running_stats=True)
        (act): LeakyReLU(negative_slope=0.2)
      )
      (tanh): Tanh()
    )
    (feature_Trans1): LocalTrans(
      (q): Linear(in_features=128, out_features=128, bias=True)
      (k): Linear(in_features=128, out_features=128, bias=True)
      (v): Linear(in_features=128, out_features=128, bias=True)
      (conv_res): Linear(
        (linear): Linear(in_features=128, out_features=128, bias=True)
        (norm1): LayerNorm((128,), eps=1e-05, elementwise_affine=True)
        (norm2): BatchNorm1d(128, eps=1e-05, momentum=0.1, affine=True, track_running_stats=True)
        (act): LeakyReLU(negative_slope=0.2)
      )
      (ffn): Linear(
        (linear): Linear(in_features=128, out_features=128, bias=True)
        (norm1): LayerNorm((128,), eps=1e-05, elementwise_affine=True)
        (norm2): BatchNorm1d(128, eps=1e-05, momentum=0.1, affine=True, track_running_stats=True)
        (act): LeakyReLU(negative_slope=0.2)
      )
      (tanh): Tanh()
    )
    (feature_Trans2): LocalTrans(
      (q): Linear(in_features=128, out_features=128, bias=True)
      (k): Linear(in_features=128, out_features=128, bias=True)
      (v): Linear(in_features=128, out_features=128, bias=True)
      (conv_res): Linear(
        (linear): Linear(in_features=128, out_features=128, bias=True)
        (norm1): LayerNorm((128,), eps=1e-05, elementwise_affine=True)
        (norm2): BatchNorm1d(128, eps=1e-05, momentum=0.1, affine=True, track_running_stats=True)
        (act): LeakyReLU(negative_slope=0.2)
      )
      (ffn): Linear(
        (linear): Linear(in_features=128, out_features=128, bias=True)
        (norm1): LayerNorm((128,), eps=1e-05, elementwise_affine=True)
        (norm2): BatchNorm1d(128, eps=1e-05, momentum=0.1, affine=True, track_running_stats=True)
        (act): LeakyReLU(negative_slope=0.2)
      )
      (tanh): Tanh()
    )
  )
  (la3_up): LocalMerge(
    (fc2): Linear(
      (linear): Linear(in_features=192, out_features=64, bias=True)
      (norm1): LayerNorm((64,), eps=1e-05, elementwise_affine=True)
      (norm2): BatchNorm1d(64, eps=1e-05, momentum=0.1, affine=True, track_running_stats=True)
      (act): LeakyReLU(negative_slope=0.2)
    )
    (xyz_Trans): LocalTrans(
      (q): Linear(in_features=3, out_features=64, bias=True)
      (k): Linear(in_features=3, out_features=64, bias=True)
      (v): Linear(in_features=3, out_features=64, bias=True)
      (conv_res): Linear(
        (linear): Linear(in_features=3, out_features=64, bias=True)
        (norm1): LayerNorm((64,), eps=1e-05, elementwise_affine=True)
        (norm2): BatchNorm1d(64, eps=1e-05, momentum=0.1, affine=True, track_running_stats=True)
        (act): LeakyReLU(negative_slope=0.2)
      )
      (ffn): Linear(
        (linear): Linear(in_features=64, out_features=64, bias=True)
        (norm1): LayerNorm((64,), eps=1e-05, elementwise_affine=True)
        (norm2): BatchNorm1d(64, eps=1e-05, momentum=0.1, affine=True, track_running_stats=True)
        (act): LeakyReLU(negative_slope=0.2)
      )
      (tanh): Tanh()
    )
    (normal_Trans): LocalTrans(
      (q): Linear(in_features=10, out_features=64, bias=True)
      (k): Linear(in_features=10, out_features=64, bias=True)
      (v): Linear(in_features=10, out_features=64, bias=True)
      (conv_res): Linear(
        (linear): Linear(in_features=10, out_features=64, bias=True)
        (norm1): LayerNorm((64,), eps=1e-05, elementwise_affine=True)
        (norm2): BatchNorm1d(64, eps=1e-05, momentum=0.1, affine=True, track_running_stats=True)
        (act): LeakyReLU(negative_slope=0.2)
      )
      (ffn): Linear(
        (linear): Linear(in_features=64, out_features=64, bias=True)
        (norm1): LayerNorm((64,), eps=1e-05, elementwise_affine=True)
        (norm2): BatchNorm1d(64, eps=1e-05, momentum=0.1, affine=True, track_running_stats=True)
        (act): LeakyReLU(negative_slope=0.2)
      )
      (tanh): Tanh()
    )
    (feature_Trans1): LocalTrans(
      (q): Linear(in_features=64, out_features=64, bias=True)
      (k): Linear(in_features=64, out_features=64, bias=True)
      (v): Linear(in_features=64, out_features=64, bias=True)
      (conv_res): Linear(
        (linear): Linear(in_features=64, out_features=64, bias=True)
        (norm1): LayerNorm((64,), eps=1e-05, elementwise_affine=True)
        (norm2): BatchNorm1d(64, eps=1e-05, momentum=0.1, affine=True, track_running_stats=True)
        (act): LeakyReLU(negative_slope=0.2)
      )
      (ffn): Linear(
        (linear): Linear(in_features=64, out_features=64, bias=True)
        (norm1): LayerNorm((64,), eps=1e-05, elementwise_affine=True)
        (norm2): BatchNorm1d(64, eps=1e-05, momentum=0.1, affine=True, track_running_stats=True)
        (act): LeakyReLU(negative_slope=0.2)
      )
      (tanh): Tanh()
    )
    (feature_Trans2): LocalTrans(
      (q): Linear(in_features=64, out_features=64, bias=True)
      (k): Linear(in_features=64, out_features=64, bias=True)
      (v): Linear(in_features=64, out_features=64, bias=True)
      (conv_res): Linear(
        (linear): Linear(in_features=64, out_features=64, bias=True)
        (norm1): LayerNorm((64,), eps=1e-05, elementwise_affine=True)
        (norm2): BatchNorm1d(64, eps=1e-05, momentum=0.1, affine=True, track_running_stats=True)
        (act): LeakyReLU(negative_slope=0.2)
      )
      (ffn): Linear(
        (linear): Linear(in_features=64, out_features=64, bias=True)
        (norm1): LayerNorm((64,), eps=1e-05, elementwise_affine=True)
        (norm2): BatchNorm1d(64, eps=1e-05, momentum=0.1, affine=True, track_running_stats=True)
        (act): LeakyReLU(negative_slope=0.2)
      )
      (tanh): Tanh()
    )
  )
  (la2_up): LocalMerge(
    (fc2): Linear(
      (linear): Linear(in_features=192, out_features=64, bias=True)
      (norm1): LayerNorm((64,), eps=1e-05, elementwise_affine=True)
      (norm2): BatchNorm1d(64, eps=1e-05, momentum=0.1, affine=True, track_running_stats=True)
      (act): LeakyReLU(negative_slope=0.2)
    )
    (xyz_Trans): LocalTrans(
      (q): Linear(in_features=3, out_features=64, bias=True)
      (k): Linear(in_features=3, out_features=64, bias=True)
      (v): Linear(in_features=3, out_features=64, bias=True)
      (conv_res): Linear(
        (linear): Linear(in_features=3, out_features=64, bias=True)
        (norm1): LayerNorm((64,), eps=1e-05, elementwise_affine=True)
        (norm2): BatchNorm1d(64, eps=1e-05, momentum=0.1, affine=True, track_running_stats=True)
        (act): LeakyReLU(negative_slope=0.2)
      )
      (ffn): Linear(
        (linear): Linear(in_features=64, out_features=64, bias=True)
        (norm1): LayerNorm((64,), eps=1e-05, elementwise_affine=True)
        (norm2): BatchNorm1d(64, eps=1e-05, momentum=0.1, affine=True, track_running_stats=True)
        (act): LeakyReLU(negative_slope=0.2)
      )
      (tanh): Tanh()
    )
    (normal_Trans): LocalTrans(
      (q): Linear(in_features=10, out_features=64, bias=True)
      (k): Linear(in_features=10, out_features=64, bias=True)
      (v): Linear(in_features=10, out_features=64, bias=True)
      (conv_res): Linear(
        (linear): Linear(in_features=10, out_features=64, bias=True)
        (norm1): LayerNorm((64,), eps=1e-05, elementwise_affine=True)
        (norm2): BatchNorm1d(64, eps=1e-05, momentum=0.1, affine=True, track_running_stats=True)
        (act): LeakyReLU(negative_slope=0.2)
      )
      (ffn): Linear(
        (linear): Linear(in_features=64, out_features=64, bias=True)
        (norm1): LayerNorm((64,), eps=1e-05, elementwise_affine=True)
        (norm2): BatchNorm1d(64, eps=1e-05, momentum=0.1, affine=True, track_running_stats=True)
        (act): LeakyReLU(negative_slope=0.2)
      )
      (tanh): Tanh()
    )
    (feature_Trans1): LocalTrans(
      (q): Linear(in_features=64, out_features=64, bias=True)
      (k): Linear(in_features=64, out_features=64, bias=True)
      (v): Linear(in_features=64, out_features=64, bias=True)
      (conv_res): Linear(
        (linear): Linear(in_features=64, out_features=64, bias=True)
        (norm1): LayerNorm((64,), eps=1e-05, elementwise_affine=True)
        (norm2): BatchNorm1d(64, eps=1e-05, momentum=0.1, affine=True, track_running_stats=True)
        (act): LeakyReLU(negative_slope=0.2)
      )
      (ffn): Linear(
        (linear): Linear(in_features=64, out_features=64, bias=True)
        (norm1): LayerNorm((64,), eps=1e-05, elementwise_affine=True)
        (norm2): BatchNorm1d(64, eps=1e-05, momentum=0.1, affine=True, track_running_stats=True)
        (act): LeakyReLU(negative_slope=0.2)
      )
      (tanh): Tanh()
    )
    (feature_Trans2): LocalTrans(
      (q): Linear(in_features=64, out_features=64, bias=True)
      (k): Linear(in_features=64, out_features=64, bias=True)
      (v): Linear(in_features=64, out_features=64, bias=True)
      (conv_res): Linear(
        (linear): Linear(in_features=64, out_features=64, bias=True)
        (norm1): LayerNorm((64,), eps=1e-05, elementwise_affine=True)
        (norm2): BatchNorm1d(64, eps=1e-05, momentum=0.1, affine=True, track_running_stats=True)
        (act): LeakyReLU(negative_slope=0.2)
      )
      (ffn): Linear(
        (linear): Linear(in_features=64, out_features=64, bias=True)
        (norm1): LayerNorm((64,), eps=1e-05, elementwise_affine=True)
        (norm2): BatchNorm1d(64, eps=1e-05, momentum=0.1, affine=True, track_running_stats=True)
        (act): LeakyReLU(negative_slope=0.2)
      )
      (tanh): Tanh()
    )
  )
  (la1_up): LocalMerge(
    (fc2): Linear(
      (linear): Linear(in_features=192, out_features=64, bias=True)
      (norm1): LayerNorm((64,), eps=1e-05, elementwise_affine=True)
      (norm2): BatchNorm1d(64, eps=1e-05, momentum=0.1, affine=True, track_running_stats=True)
      (act): LeakyReLU(negative_slope=0.2)
    )
    (xyz_Trans): LocalTrans(
      (q): Linear(in_features=3, out_features=64, bias=True)
      (k): Linear(in_features=3, out_features=64, bias=True)
      (v): Linear(in_features=3, out_features=64, bias=True)
      (conv_res): Linear(
        (linear): Linear(in_features=3, out_features=64, bias=True)
        (norm1): LayerNorm((64,), eps=1e-05, elementwise_affine=True)
        (norm2): BatchNorm1d(64, eps=1e-05, momentum=0.1, affine=True, track_running_stats=True)
        (act): LeakyReLU(negative_slope=0.2)
      )
      (ffn): Linear(
        (linear): Linear(in_features=64, out_features=64, bias=True)
        (norm1): LayerNorm((64,), eps=1e-05, elementwise_affine=True)
        (norm2): BatchNorm1d(64, eps=1e-05, momentum=0.1, affine=True, track_running_stats=True)
        (act): LeakyReLU(negative_slope=0.2)
      )
      (tanh): Tanh()
    )
    (normal_Trans): LocalTrans(
      (q): Linear(in_features=10, out_features=64, bias=True)
      (k): Linear(in_features=10, out_features=64, bias=True)
      (v): Linear(in_features=10, out_features=64, bias=True)
      (conv_res): Linear(
        (linear): Linear(in_features=10, out_features=64, bias=True)
        (norm1): LayerNorm((64,), eps=1e-05, elementwise_affine=True)
        (norm2): BatchNorm1d(64, eps=1e-05, momentum=0.1, affine=True, track_running_stats=True)
        (act): LeakyReLU(negative_slope=0.2)
      )
      (ffn): Linear(
        (linear): Linear(in_features=64, out_features=64, bias=True)
        (norm1): LayerNorm((64,), eps=1e-05, elementwise_affine=True)
        (norm2): BatchNorm1d(64, eps=1e-05, momentum=0.1, affine=True, track_running_stats=True)
        (act): LeakyReLU(negative_slope=0.2)
      )
      (tanh): Tanh()
    )
    (feature_Trans1): LocalTrans(
      (q): Linear(in_features=64, out_features=64, bias=True)
      (k): Linear(in_features=64, out_features=64, bias=True)
      (v): Linear(in_features=64, out_features=64, bias=True)
      (conv_res): Linear(
        (linear): Linear(in_features=64, out_features=64, bias=True)
        (norm1): LayerNorm((64,), eps=1e-05, elementwise_affine=True)
        (norm2): BatchNorm1d(64, eps=1e-05, momentum=0.1, affine=True, track_running_stats=True)
        (act): LeakyReLU(negative_slope=0.2)
      )
      (ffn): Linear(
        (linear): Linear(in_features=64, out_features=64, bias=True)
        (norm1): LayerNorm((64,), eps=1e-05, elementwise_affine=True)
        (norm2): BatchNorm1d(64, eps=1e-05, momentum=0.1, affine=True, track_running_stats=True)
        (act): LeakyReLU(negative_slope=0.2)
      )
      (tanh): Tanh()
    )
    (feature_Trans2): LocalTrans(
      (q): Linear(in_features=64, out_features=64, bias=True)
      (k): Linear(in_features=64, out_features=64, bias=True)
      (v): Linear(in_features=64, out_features=64, bias=True)
      (conv_res): Linear(
        (linear): Linear(in_features=64, out_features=64, bias=True)
        (norm1): LayerNorm((64,), eps=1e-05, elementwise_affine=True)
        (norm2): BatchNorm1d(64, eps=1e-05, momentum=0.1, affine=True, track_running_stats=True)
        (act): LeakyReLU(negative_slope=0.2)
      )
      (ffn): Linear(
        (linear): Linear(in_features=64, out_features=64, bias=True)
        (norm1): LayerNorm((64,), eps=1e-05, elementwise_affine=True)
        (norm2): BatchNorm1d(64, eps=1e-05, momentum=0.1, affine=True, track_running_stats=True)
        (act): LeakyReLU(negative_slope=0.2)
      )
      (tanh): Tanh()
    )
  )
  (up_conv4): Linear(
    (linear): Linear(in_features=256, out_features=128, bias=True)
    (norm1): LayerNorm((128,), eps=1e-05, elementwise_affine=True)
    (norm2): BatchNorm1d(128, eps=1e-05, momentum=0.1, affine=True, track_running_stats=True)
    (act): LeakyReLU(negative_slope=0.2)
  )
  (up_conv3): Linear(
    (linear): Linear(in_features=128, out_features=64, bias=True)
    (norm1): LayerNorm((64,), eps=1e-05, elementwise_affine=True)
    (norm2): BatchNorm1d(64, eps=1e-05, momentum=0.1, affine=True, track_running_stats=True)
    (act): LeakyReLU(negative_slope=0.2)
  )
  (up_conv2): Linear(
    (linear): Linear(in_features=64, out_features=64, bias=True)
    (norm1): LayerNorm((64,), eps=1e-05, elementwise_affine=True)
    (norm2): BatchNorm1d(64, eps=1e-05, momentum=0.1, affine=True, track_running_stats=True)
    (act): LeakyReLU(negative_slope=0.2)
  )
  (up_conv1): Linear(
    (linear): Linear(in_features=64, out_features=64, bias=True)
    (norm1): LayerNorm((64,), eps=1e-05, elementwise_affine=True)
    (norm2): BatchNorm1d(64, eps=1e-05, momentum=0.1, affine=True, track_running_stats=True)
    (act): LeakyReLU(negative_slope=0.2)
  )
  (mlp): Linear(
    (linear): Linear(in_features=256, out_features=256, bias=True)
    (norm1): LayerNorm((256,), eps=1e-05, elementwise_affine=True)
    (norm2): BatchNorm1d(256, eps=1e-05, momentum=0.1, affine=True, track_running_stats=True)
    (act): LeakyReLU(negative_slope=0.2)
  )
  (conv5): Linear(
    (linear): Linear(in_features=64, out_features=256, bias=True)
    (norm1): LayerNorm((256,), eps=1e-05, elementwise_affine=True)
    (norm2): BatchNorm1d(256, eps=1e-05, momentum=0.1, affine=True, track_running_stats=True)
    (act): LeakyReLU(negative_slope=0.2)
  )
  (conv6): Linear(
    (linear): Linear(in_features=64, out_features=128, bias=True)
    (norm1): LayerNorm((128,), eps=1e-05, elementwise_affine=True)
    (norm2): BatchNorm1d(128, eps=1e-05, momentum=0.1, affine=True, track_running_stats=True)
    (act): LeakyReLU(negative_slope=0.2)
  )
  (conv7): Linear(
    (linear): Linear(in_features=16, out_features=64, bias=True)
    (norm1): LayerNorm((64,), eps=1e-05, elementwise_affine=True)
    (norm2): BatchNorm1d(64, eps=1e-05, momentum=0.1, affine=True, track_running_stats=True)
    (act): LeakyReLU(negative_slope=0.2)
  )
  (conv8): Linear(
    (linear): Linear(in_features=64, out_features=256, bias=True)
    (norm1): LayerNorm((256,), eps=1e-05, elementwise_affine=True)
    (norm2): BatchNorm1d(256, eps=1e-05, momentum=0.1, affine=True, track_running_stats=True)
    (act): LeakyReLU(negative_slope=0.2)
  )
  (fuse1): Fuse(
    (conv04): Linear(
      (linear): Linear(in_features=64, out_features=256, bias=True)
      (norm1): LayerNorm((256,), eps=1e-05, elementwise_affine=True)
      (norm2): BatchNorm1d(256, eps=1e-05, momentum=0.1, affine=True, track_running_stats=True)
      (act): LeakyReLU(negative_slope=0.2)
    )
    (conv14): Linear(
      (linear): Linear(in_features=64, out_features=256, bias=True)
      (norm1): LayerNorm((256,), eps=1e-05, elementwise_affine=True)
      (norm2): BatchNorm1d(256, eps=1e-05, momentum=0.1, affine=True, track_running_stats=True)
      (act): LeakyReLU(negative_slope=0.2)
    )
    (conv24): Linear(
      (linear): Linear(in_features=64, out_features=256, bias=True)
      (norm1): LayerNorm((256,), eps=1e-05, elementwise_affine=True)
      (norm2): BatchNorm1d(256, eps=1e-05, momentum=0.1, affine=True, track_running_stats=True)
      (act): LeakyReLU(negative_slope=0.2)
    )
    (conv34): Linear(
      (linear): Linear(in_features=128, out_features=256, bias=True)
      (norm1): LayerNorm((256,), eps=1e-05, elementwise_affine=True)
      (norm2): BatchNorm1d(256, eps=1e-05, momentum=0.1, affine=True, track_running_stats=True)
      (act): LeakyReLU(negative_slope=0.2)
    )
    (conv4): Linear(
      (linear): Linear(in_features=256, out_features=256, bias=True)
      (norm1): LayerNorm((256,), eps=1e-05, elementwise_affine=True)
      (norm2): BatchNorm1d(256, eps=1e-05, momentum=0.1, affine=True, track_running_stats=True)
      (act): LeakyReLU(negative_slope=0.2)
    )
    (conv03): Linear(
      (linear): Linear(in_features=64, out_features=128, bias=True)
      (norm1): LayerNorm((128,), eps=1e-05, elementwise_affine=True)
      (norm2): BatchNorm1d(128, eps=1e-05, momentum=0.1, affine=True, track_running_stats=True)
      (act): LeakyReLU(negative_slope=0.2)
    )
    (conv13): Linear(
      (linear): Linear(in_features=64, out_features=128, bias=True)
      (norm1): LayerNorm((128,), eps=1e-05, elementwise_affine=True)
      (norm2): BatchNorm1d(128, eps=1e-05, momentum=0.1, affine=True, track_running_stats=True)
      (act): LeakyReLU(negative_slope=0.2)
    )
    (conv23): Linear(
      (linear): Linear(in_features=64, out_features=128, bias=True)
      (norm1): LayerNorm((128,), eps=1e-05, elementwise_affine=True)
      (norm2): BatchNorm1d(128, eps=1e-05, momentum=0.1, affine=True, track_running_stats=True)
      (act): LeakyReLU(negative_slope=0.2)
    )
    (conv43): Linear(
      (linear): Linear(in_features=256, out_features=128, bias=True)
      (norm1): LayerNorm((128,), eps=1e-05, elementwise_affine=True)
      (norm2): BatchNorm1d(128, eps=1e-05, momentum=0.1, affine=True, track_running_stats=True)
      (act): LeakyReLU(negative_slope=0.2)
    )
    (conv3): Linear(
      (linear): Linear(in_features=128, out_features=128, bias=True)
      (norm1): LayerNorm((128,), eps=1e-05, elementwise_affine=True)
      (norm2): BatchNorm1d(128, eps=1e-05, momentum=0.1, affine=True, track_running_stats=True)
      (act): LeakyReLU(negative_slope=0.2)
    )
    (conv02): Linear(
      (linear): Linear(in_features=64, out_features=64, bias=True)
      (norm1): LayerNorm((64,), eps=1e-05, elementwise_affine=True)
      (norm2): BatchNorm1d(64, eps=1e-05, momentum=0.1, affine=True, track_running_stats=True)
      (act): LeakyReLU(negative_slope=0.2)
    )
    (conv12): Linear(
      (linear): Linear(in_features=64, out_features=64, bias=True)
      (norm1): LayerNorm((64,), eps=1e-05, elementwise_affine=True)
      (norm2): BatchNorm1d(64, eps=1e-05, momentum=0.1, affine=True, track_running_stats=True)
      (act): LeakyReLU(negative_slope=0.2)
    )
    (conv32): Linear(
      (linear): Linear(in_features=128, out_features=64, bias=True)
      (norm1): LayerNorm((64,), eps=1e-05, elementwise_affine=True)
      (norm2): BatchNorm1d(64, eps=1e-05, momentum=0.1, affine=True, track_running_stats=True)
      (act): LeakyReLU(negative_slope=0.2)
    )
    (conv42): Linear(
      (linear): Linear(in_features=256, out_features=64, bias=True)
      (norm1): LayerNorm((64,), eps=1e-05, elementwise_affine=True)
      (norm2): BatchNorm1d(64, eps=1e-05, momentum=0.1, affine=True, track_running_stats=True)
      (act): LeakyReLU(negative_slope=0.2)
    )
    (conv2): Linear(
      (linear): Linear(in_features=64, out_features=64, bias=True)
      (norm1): LayerNorm((64,), eps=1e-05, elementwise_affine=True)
      (norm2): BatchNorm1d(64, eps=1e-05, momentum=0.1, affine=True, track_running_stats=True)
      (act): LeakyReLU(negative_slope=0.2)
    )
    (conv01): Linear(
      (linear): Linear(in_features=64, out_features=64, bias=True)
      (norm1): LayerNorm((64,), eps=1e-05, elementwise_affine=True)
      (norm2): BatchNorm1d(64, eps=1e-05, momentum=0.1, affine=True, track_running_stats=True)
      (act): LeakyReLU(negative_slope=0.2)
    )
    (conv21): Linear(
      (linear): Linear(in_features=64, out_features=64, bias=True)
      (norm1): LayerNorm((64,), eps=1e-05, elementwise_affine=True)
      (norm2): BatchNorm1d(64, eps=1e-05, momentum=0.1, affine=True, track_running_stats=True)
      (act): LeakyReLU(negative_slope=0.2)
    )
    (conv31): Linear(
      (linear): Linear(in_features=128, out_features=64, bias=True)
      (norm1): LayerNorm((64,), eps=1e-05, elementwise_affine=True)
      (norm2): BatchNorm1d(64, eps=1e-05, momentum=0.1, affine=True, track_running_stats=True)
      (act): LeakyReLU(negative_slope=0.2)
    )
    (conv41): Linear(
      (linear): Linear(in_features=256, out_features=64, bias=True)
      (norm1): LayerNorm((64,), eps=1e-05, elementwise_affine=True)
      (norm2): BatchNorm1d(64, eps=1e-05, momentum=0.1, affine=True, track_running_stats=True)
      (act): LeakyReLU(negative_slope=0.2)
    )
    (conv1): Linear(
      (linear): Linear(in_features=64, out_features=64, bias=True)
      (norm1): LayerNorm((64,), eps=1e-05, elementwise_affine=True)
      (norm2): BatchNorm1d(64, eps=1e-05, momentum=0.1, affine=True, track_running_stats=True)
      (act): LeakyReLU(negative_slope=0.2)
    )
    (conv10): Linear(
      (linear): Linear(in_features=64, out_features=64, bias=True)
      (norm1): LayerNorm((64,), eps=1e-05, elementwise_affine=True)
      (norm2): BatchNorm1d(64, eps=1e-05, momentum=0.1, affine=True, track_running_stats=True)
      (act): LeakyReLU(negative_slope=0.2)
    )
    (conv20): Linear(
      (linear): Linear(in_features=64, out_features=64, bias=True)
      (norm1): LayerNorm((64,), eps=1e-05, elementwise_affine=True)
      (norm2): BatchNorm1d(64, eps=1e-05, momentum=0.1, affine=True, track_running_stats=True)
      (act): LeakyReLU(negative_slope=0.2)
    )
    (conv30): Linear(
      (linear): Linear(in_features=128, out_features=64, bias=True)
      (norm1): LayerNorm((64,), eps=1e-05, elementwise_affine=True)
      (norm2): BatchNorm1d(64, eps=1e-05, momentum=0.1, affine=True, track_running_stats=True)
      (act): LeakyReLU(negative_slope=0.2)
    )
    (conv40): Linear(
      (linear): Linear(in_features=256, out_features=64, bias=True)
      (norm1): LayerNorm((64,), eps=1e-05, elementwise_affine=True)
      (norm2): BatchNorm1d(64, eps=1e-05, momentum=0.1, affine=True, track_running_stats=True)
      (act): LeakyReLU(negative_slope=0.2)
    )
    (conv0): Linear(
      (linear): Linear(in_features=64, out_features=64, bias=True)
      (norm1): LayerNorm((64,), eps=1e-05, elementwise_affine=True)
      (norm2): BatchNorm1d(64, eps=1e-05, momentum=0.1, affine=True, track_running_stats=True)
      (act): LeakyReLU(negative_slope=0.2)
    )
  )
  (fuse2): Fuse(
    (conv04): Linear(
      (linear): Linear(in_features=64, out_features=256, bias=True)
      (norm1): LayerNorm((256,), eps=1e-05, elementwise_affine=True)
      (norm2): BatchNorm1d(256, eps=1e-05, momentum=0.1, affine=True, track_running_stats=True)
      (act): LeakyReLU(negative_slope=0.2)
    )
    (conv14): Linear(
      (linear): Linear(in_features=64, out_features=256, bias=True)
      (norm1): LayerNorm((256,), eps=1e-05, elementwise_affine=True)
      (norm2): BatchNorm1d(256, eps=1e-05, momentum=0.1, affine=True, track_running_stats=True)
      (act): LeakyReLU(negative_slope=0.2)
    )
    (conv24): Linear(
      (linear): Linear(in_features=64, out_features=256, bias=True)
      (norm1): LayerNorm((256,), eps=1e-05, elementwise_affine=True)
      (norm2): BatchNorm1d(256, eps=1e-05, momentum=0.1, affine=True, track_running_stats=True)
      (act): LeakyReLU(negative_slope=0.2)
    )
    (conv34): Linear(
      (linear): Linear(in_features=128, out_features=256, bias=True)
      (norm1): LayerNorm((256,), eps=1e-05, elementwise_affine=True)
      (norm2): BatchNorm1d(256, eps=1e-05, momentum=0.1, affine=True, track_running_stats=True)
      (act): LeakyReLU(negative_slope=0.2)
    )
    (conv4): Linear(
      (linear): Linear(in_features=256, out_features=256, bias=True)
      (norm1): LayerNorm((256,), eps=1e-05, elementwise_affine=True)
      (norm2): BatchNorm1d(256, eps=1e-05, momentum=0.1, affine=True, track_running_stats=True)
      (act): LeakyReLU(negative_slope=0.2)
    )
    (conv03): Linear(
      (linear): Linear(in_features=64, out_features=128, bias=True)
      (norm1): LayerNorm((128,), eps=1e-05, elementwise_affine=True)
      (norm2): BatchNorm1d(128, eps=1e-05, momentum=0.1, affine=True, track_running_stats=True)
      (act): LeakyReLU(negative_slope=0.2)
    )
    (conv13): Linear(
      (linear): Linear(in_features=64, out_features=128, bias=True)
      (norm1): LayerNorm((128,), eps=1e-05, elementwise_affine=True)
      (norm2): BatchNorm1d(128, eps=1e-05, momentum=0.1, affine=True, track_running_stats=True)
      (act): LeakyReLU(negative_slope=0.2)
    )
    (conv23): Linear(
      (linear): Linear(in_features=64, out_features=128, bias=True)
      (norm1): LayerNorm((128,), eps=1e-05, elementwise_affine=True)
      (norm2): BatchNorm1d(128, eps=1e-05, momentum=0.1, affine=True, track_running_stats=True)
      (act): LeakyReLU(negative_slope=0.2)
    )
    (conv43): Linear(
      (linear): Linear(in_features=256, out_features=128, bias=True)
      (norm1): LayerNorm((128,), eps=1e-05, elementwise_affine=True)
      (norm2): BatchNorm1d(128, eps=1e-05, momentum=0.1, affine=True, track_running_stats=True)
      (act): LeakyReLU(negative_slope=0.2)
    )
    (conv3): Linear(
      (linear): Linear(in_features=128, out_features=128, bias=True)
      (norm1): LayerNorm((128,), eps=1e-05, elementwise_affine=True)
      (norm2): BatchNorm1d(128, eps=1e-05, momentum=0.1, affine=True, track_running_stats=True)
      (act): LeakyReLU(negative_slope=0.2)
    )
    (conv02): Linear(
      (linear): Linear(in_features=64, out_features=64, bias=True)
      (norm1): LayerNorm((64,), eps=1e-05, elementwise_affine=True)
      (norm2): BatchNorm1d(64, eps=1e-05, momentum=0.1, affine=True, track_running_stats=True)
      (act): LeakyReLU(negative_slope=0.2)
    )
    (conv12): Linear(
      (linear): Linear(in_features=64, out_features=64, bias=True)
      (norm1): LayerNorm((64,), eps=1e-05, elementwise_affine=True)
      (norm2): BatchNorm1d(64, eps=1e-05, momentum=0.1, affine=True, track_running_stats=True)
      (act): LeakyReLU(negative_slope=0.2)
    )
    (conv32): Linear(
      (linear): Linear(in_features=128, out_features=64, bias=True)
      (norm1): LayerNorm((64,), eps=1e-05, elementwise_affine=True)
      (norm2): BatchNorm1d(64, eps=1e-05, momentum=0.1, affine=True, track_running_stats=True)
      (act): LeakyReLU(negative_slope=0.2)
    )
    (conv42): Linear(
      (linear): Linear(in_features=256, out_features=64, bias=True)
      (norm1): LayerNorm((64,), eps=1e-05, elementwise_affine=True)
      (norm2): BatchNorm1d(64, eps=1e-05, momentum=0.1, affine=True, track_running_stats=True)
      (act): LeakyReLU(negative_slope=0.2)
    )
    (conv2): Linear(
      (linear): Linear(in_features=64, out_features=64, bias=True)
      (norm1): LayerNorm((64,), eps=1e-05, elementwise_affine=True)
      (norm2): BatchNorm1d(64, eps=1e-05, momentum=0.1, affine=True, track_running_stats=True)
      (act): LeakyReLU(negative_slope=0.2)
    )
    (conv01): Linear(
      (linear): Linear(in_features=64, out_features=64, bias=True)
      (norm1): LayerNorm((64,), eps=1e-05, elementwise_affine=True)
      (norm2): BatchNorm1d(64, eps=1e-05, momentum=0.1, affine=True, track_running_stats=True)
      (act): LeakyReLU(negative_slope=0.2)
    )
    (conv21): Linear(
      (linear): Linear(in_features=64, out_features=64, bias=True)
      (norm1): LayerNorm((64,), eps=1e-05, elementwise_affine=True)
      (norm2): BatchNorm1d(64, eps=1e-05, momentum=0.1, affine=True, track_running_stats=True)
      (act): LeakyReLU(negative_slope=0.2)
    )
    (conv31): Linear(
      (linear): Linear(in_features=128, out_features=64, bias=True)
      (norm1): LayerNorm((64,), eps=1e-05, elementwise_affine=True)
      (norm2): BatchNorm1d(64, eps=1e-05, momentum=0.1, affine=True, track_running_stats=True)
      (act): LeakyReLU(negative_slope=0.2)
    )
    (conv41): Linear(
      (linear): Linear(in_features=256, out_features=64, bias=True)
      (norm1): LayerNorm((64,), eps=1e-05, elementwise_affine=True)
      (norm2): BatchNorm1d(64, eps=1e-05, momentum=0.1, affine=True, track_running_stats=True)
      (act): LeakyReLU(negative_slope=0.2)
    )
    (conv1): Linear(
      (linear): Linear(in_features=64, out_features=64, bias=True)
      (norm1): LayerNorm((64,), eps=1e-05, elementwise_affine=True)
      (norm2): BatchNorm1d(64, eps=1e-05, momentum=0.1, affine=True, track_running_stats=True)
      (act): LeakyReLU(negative_slope=0.2)
    )
    (conv10): Linear(
      (linear): Linear(in_features=64, out_features=64, bias=True)
      (norm1): LayerNorm((64,), eps=1e-05, elementwise_affine=True)
      (norm2): BatchNorm1d(64, eps=1e-05, momentum=0.1, affine=True, track_running_stats=True)
      (act): LeakyReLU(negative_slope=0.2)
    )
    (conv20): Linear(
      (linear): Linear(in_features=64, out_features=64, bias=True)
      (norm1): LayerNorm((64,), eps=1e-05, elementwise_affine=True)
      (norm2): BatchNorm1d(64, eps=1e-05, momentum=0.1, affine=True, track_running_stats=True)
      (act): LeakyReLU(negative_slope=0.2)
    )
    (conv30): Linear(
      (linear): Linear(in_features=128, out_features=64, bias=True)
      (norm1): LayerNorm((64,), eps=1e-05, elementwise_affine=True)
      (norm2): BatchNorm1d(64, eps=1e-05, momentum=0.1, affine=True, track_running_stats=True)
      (act): LeakyReLU(negative_slope=0.2)
    )
    (conv40): Linear(
      (linear): Linear(in_features=256, out_features=64, bias=True)
      (norm1): LayerNorm((64,), eps=1e-05, elementwise_affine=True)
      (norm2): BatchNorm1d(64, eps=1e-05, momentum=0.1, affine=True, track_running_stats=True)
      (act): LeakyReLU(negative_slope=0.2)
    )
    (conv0): Linear(
      (linear): Linear(in_features=64, out_features=64, bias=True)
      (norm1): LayerNorm((64,), eps=1e-05, elementwise_affine=True)
      (norm2): BatchNorm1d(64, eps=1e-05, momentum=0.1, affine=True, track_running_stats=True)
      (act): LeakyReLU(negative_slope=0.2)
    )
  )
  (fuse3): Fuse(
    (conv04): Linear(
      (linear): Linear(in_features=64, out_features=256, bias=True)
      (norm1): LayerNorm((256,), eps=1e-05, elementwise_affine=True)
      (norm2): BatchNorm1d(256, eps=1e-05, momentum=0.1, affine=True, track_running_stats=True)
      (act): LeakyReLU(negative_slope=0.2)
    )
    (conv14): Linear(
      (linear): Linear(in_features=64, out_features=256, bias=True)
      (norm1): LayerNorm((256,), eps=1e-05, elementwise_affine=True)
      (norm2): BatchNorm1d(256, eps=1e-05, momentum=0.1, affine=True, track_running_stats=True)
      (act): LeakyReLU(negative_slope=0.2)
    )
    (conv24): Linear(
      (linear): Linear(in_features=64, out_features=256, bias=True)
      (norm1): LayerNorm((256,), eps=1e-05, elementwise_affine=True)
      (norm2): BatchNorm1d(256, eps=1e-05, momentum=0.1, affine=True, track_running_stats=True)
      (act): LeakyReLU(negative_slope=0.2)
    )
    (conv34): Linear(
      (linear): Linear(in_features=128, out_features=256, bias=True)
      (norm1): LayerNorm((256,), eps=1e-05, elementwise_affine=True)
      (norm2): BatchNorm1d(256, eps=1e-05, momentum=0.1, affine=True, track_running_stats=True)
      (act): LeakyReLU(negative_slope=0.2)
    )
    (conv4): Linear(
      (linear): Linear(in_features=256, out_features=256, bias=True)
      (norm1): LayerNorm((256,), eps=1e-05, elementwise_affine=True)
      (norm2): BatchNorm1d(256, eps=1e-05, momentum=0.1, affine=True, track_running_stats=True)
      (act): LeakyReLU(negative_slope=0.2)
    )
    (conv03): Linear(
      (linear): Linear(in_features=64, out_features=128, bias=True)
      (norm1): LayerNorm((128,), eps=1e-05, elementwise_affine=True)
      (norm2): BatchNorm1d(128, eps=1e-05, momentum=0.1, affine=True, track_running_stats=True)
      (act): LeakyReLU(negative_slope=0.2)
    )
    (conv13): Linear(
      (linear): Linear(in_features=64, out_features=128, bias=True)
      (norm1): LayerNorm((128,), eps=1e-05, elementwise_affine=True)
      (norm2): BatchNorm1d(128, eps=1e-05, momentum=0.1, affine=True, track_running_stats=True)
      (act): LeakyReLU(negative_slope=0.2)
    )
    (conv23): Linear(
      (linear): Linear(in_features=64, out_features=128, bias=True)
      (norm1): LayerNorm((128,), eps=1e-05, elementwise_affine=True)
      (norm2): BatchNorm1d(128, eps=1e-05, momentum=0.1, affine=True, track_running_stats=True)
      (act): LeakyReLU(negative_slope=0.2)
    )
    (conv43): Linear(
      (linear): Linear(in_features=256, out_features=128, bias=True)
      (norm1): LayerNorm((128,), eps=1e-05, elementwise_affine=True)
      (norm2): BatchNorm1d(128, eps=1e-05, momentum=0.1, affine=True, track_running_stats=True)
      (act): LeakyReLU(negative_slope=0.2)
    )
    (conv3): Linear(
      (linear): Linear(in_features=128, out_features=128, bias=True)
      (norm1): LayerNorm((128,), eps=1e-05, elementwise_affine=True)
      (norm2): BatchNorm1d(128, eps=1e-05, momentum=0.1, affine=True, track_running_stats=True)
      (act): LeakyReLU(negative_slope=0.2)
    )
    (conv02): Linear(
      (linear): Linear(in_features=64, out_features=64, bias=True)
      (norm1): LayerNorm((64,), eps=1e-05, elementwise_affine=True)
      (norm2): BatchNorm1d(64, eps=1e-05, momentum=0.1, affine=True, track_running_stats=True)
      (act): LeakyReLU(negative_slope=0.2)
    )
    (conv12): Linear(
      (linear): Linear(in_features=64, out_features=64, bias=True)
      (norm1): LayerNorm((64,), eps=1e-05, elementwise_affine=True)
      (norm2): BatchNorm1d(64, eps=1e-05, momentum=0.1, affine=True, track_running_stats=True)
      (act): LeakyReLU(negative_slope=0.2)
    )
    (conv32): Linear(
      (linear): Linear(in_features=128, out_features=64, bias=True)
      (norm1): LayerNorm((64,), eps=1e-05, elementwise_affine=True)
      (norm2): BatchNorm1d(64, eps=1e-05, momentum=0.1, affine=True, track_running_stats=True)
      (act): LeakyReLU(negative_slope=0.2)
    )
    (conv42): Linear(
      (linear): Linear(in_features=256, out_features=64, bias=True)
      (norm1): LayerNorm((64,), eps=1e-05, elementwise_affine=True)
      (norm2): BatchNorm1d(64, eps=1e-05, momentum=0.1, affine=True, track_running_stats=True)
      (act): LeakyReLU(negative_slope=0.2)
    )
    (conv2): Linear(
      (linear): Linear(in_features=64, out_features=64, bias=True)
      (norm1): LayerNorm((64,), eps=1e-05, elementwise_affine=True)
      (norm2): BatchNorm1d(64, eps=1e-05, momentum=0.1, affine=True, track_running_stats=True)
      (act): LeakyReLU(negative_slope=0.2)
    )
    (conv01): Linear(
      (linear): Linear(in_features=64, out_features=64, bias=True)
      (norm1): LayerNorm((64,), eps=1e-05, elementwise_affine=True)
      (norm2): BatchNorm1d(64, eps=1e-05, momentum=0.1, affine=True, track_running_stats=True)
      (act): LeakyReLU(negative_slope=0.2)
    )
    (conv21): Linear(
      (linear): Linear(in_features=64, out_features=64, bias=True)
      (norm1): LayerNorm((64,), eps=1e-05, elementwise_affine=True)
      (norm2): BatchNorm1d(64, eps=1e-05, momentum=0.1, affine=True, track_running_stats=True)
      (act): LeakyReLU(negative_slope=0.2)
    )
    (conv31): Linear(
      (linear): Linear(in_features=128, out_features=64, bias=True)
      (norm1): LayerNorm((64,), eps=1e-05, elementwise_affine=True)
      (norm2): BatchNorm1d(64, eps=1e-05, momentum=0.1, affine=True, track_running_stats=True)
      (act): LeakyReLU(negative_slope=0.2)
    )
    (conv41): Linear(
      (linear): Linear(in_features=256, out_features=64, bias=True)
      (norm1): LayerNorm((64,), eps=1e-05, elementwise_affine=True)
      (norm2): BatchNorm1d(64, eps=1e-05, momentum=0.1, affine=True, track_running_stats=True)
      (act): LeakyReLU(negative_slope=0.2)
    )
    (conv1): Linear(
      (linear): Linear(in_features=64, out_features=64, bias=True)
      (norm1): LayerNorm((64,), eps=1e-05, elementwise_affine=True)
      (norm2): BatchNorm1d(64, eps=1e-05, momentum=0.1, affine=True, track_running_stats=True)
      (act): LeakyReLU(negative_slope=0.2)
    )
    (conv10): Linear(
      (linear): Linear(in_features=64, out_features=64, bias=True)
      (norm1): LayerNorm((64,), eps=1e-05, elementwise_affine=True)
      (norm2): BatchNorm1d(64, eps=1e-05, momentum=0.1, affine=True, track_running_stats=True)
      (act): LeakyReLU(negative_slope=0.2)
    )
    (conv20): Linear(
      (linear): Linear(in_features=64, out_features=64, bias=True)
      (norm1): LayerNorm((64,), eps=1e-05, elementwise_affine=True)
      (norm2): BatchNorm1d(64, eps=1e-05, momentum=0.1, affine=True, track_running_stats=True)
      (act): LeakyReLU(negative_slope=0.2)
    )
    (conv30): Linear(
      (linear): Linear(in_features=128, out_features=64, bias=True)
      (norm1): LayerNorm((64,), eps=1e-05, elementwise_affine=True)
      (norm2): BatchNorm1d(64, eps=1e-05, momentum=0.1, affine=True, track_running_stats=True)
      (act): LeakyReLU(negative_slope=0.2)
    )
    (conv40): Linear(
      (linear): Linear(in_features=256, out_features=64, bias=True)
      (norm1): LayerNorm((64,), eps=1e-05, elementwise_affine=True)
      (norm2): BatchNorm1d(64, eps=1e-05, momentum=0.1, affine=True, track_running_stats=True)
      (act): LeakyReLU(negative_slope=0.2)
    )
    (conv0): Linear(
      (linear): Linear(in_features=64, out_features=64, bias=True)
      (norm1): LayerNorm((64,), eps=1e-05, elementwise_affine=True)
      (norm2): BatchNorm1d(64, eps=1e-05, momentum=0.1, affine=True, track_running_stats=True)
      (act): LeakyReLU(negative_slope=0.2)
    )
  )
  (fuse4): Fuse(
    (conv04): Linear(
      (linear): Linear(in_features=64, out_features=256, bias=True)
      (norm1): LayerNorm((256,), eps=1e-05, elementwise_affine=True)
      (norm2): BatchNorm1d(256, eps=1e-05, momentum=0.1, affine=True, track_running_stats=True)
      (act): LeakyReLU(negative_slope=0.2)
    )
    (conv14): Linear(
      (linear): Linear(in_features=64, out_features=256, bias=True)
      (norm1): LayerNorm((256,), eps=1e-05, elementwise_affine=True)
      (norm2): BatchNorm1d(256, eps=1e-05, momentum=0.1, affine=True, track_running_stats=True)
      (act): LeakyReLU(negative_slope=0.2)
    )
    (conv24): Linear(
      (linear): Linear(in_features=64, out_features=256, bias=True)
      (norm1): LayerNorm((256,), eps=1e-05, elementwise_affine=True)
      (norm2): BatchNorm1d(256, eps=1e-05, momentum=0.1, affine=True, track_running_stats=True)
      (act): LeakyReLU(negative_slope=0.2)
    )
    (conv34): Linear(
      (linear): Linear(in_features=128, out_features=256, bias=True)
      (norm1): LayerNorm((256,), eps=1e-05, elementwise_affine=True)
      (norm2): BatchNorm1d(256, eps=1e-05, momentum=0.1, affine=True, track_running_stats=True)
      (act): LeakyReLU(negative_slope=0.2)
    )
    (conv4): Linear(
      (linear): Linear(in_features=256, out_features=256, bias=True)
      (norm1): LayerNorm((256,), eps=1e-05, elementwise_affine=True)
      (norm2): BatchNorm1d(256, eps=1e-05, momentum=0.1, affine=True, track_running_stats=True)
      (act): LeakyReLU(negative_slope=0.2)
    )
    (conv03): Linear(
      (linear): Linear(in_features=64, out_features=128, bias=True)
      (norm1): LayerNorm((128,), eps=1e-05, elementwise_affine=True)
      (norm2): BatchNorm1d(128, eps=1e-05, momentum=0.1, affine=True, track_running_stats=True)
      (act): LeakyReLU(negative_slope=0.2)
    )
    (conv13): Linear(
      (linear): Linear(in_features=64, out_features=128, bias=True)
      (norm1): LayerNorm((128,), eps=1e-05, elementwise_affine=True)
      (norm2): BatchNorm1d(128, eps=1e-05, momentum=0.1, affine=True, track_running_stats=True)
      (act): LeakyReLU(negative_slope=0.2)
    )
    (conv23): Linear(
      (linear): Linear(in_features=64, out_features=128, bias=True)
      (norm1): LayerNorm((128,), eps=1e-05, elementwise_affine=True)
      (norm2): BatchNorm1d(128, eps=1e-05, momentum=0.1, affine=True, track_running_stats=True)
      (act): LeakyReLU(negative_slope=0.2)
    )
    (conv43): Linear(
      (linear): Linear(in_features=256, out_features=128, bias=True)
      (norm1): LayerNorm((128,), eps=1e-05, elementwise_affine=True)
      (norm2): BatchNorm1d(128, eps=1e-05, momentum=0.1, affine=True, track_running_stats=True)
      (act): LeakyReLU(negative_slope=0.2)
    )
    (conv3): Linear(
      (linear): Linear(in_features=128, out_features=128, bias=True)
      (norm1): LayerNorm((128,), eps=1e-05, elementwise_affine=True)
      (norm2): BatchNorm1d(128, eps=1e-05, momentum=0.1, affine=True, track_running_stats=True)
      (act): LeakyReLU(negative_slope=0.2)
    )
    (conv02): Linear(
      (linear): Linear(in_features=64, out_features=64, bias=True)
      (norm1): LayerNorm((64,), eps=1e-05, elementwise_affine=True)
      (norm2): BatchNorm1d(64, eps=1e-05, momentum=0.1, affine=True, track_running_stats=True)
      (act): LeakyReLU(negative_slope=0.2)
    )
    (conv12): Linear(
      (linear): Linear(in_features=64, out_features=64, bias=True)
      (norm1): LayerNorm((64,), eps=1e-05, elementwise_affine=True)
      (norm2): BatchNorm1d(64, eps=1e-05, momentum=0.1, affine=True, track_running_stats=True)
      (act): LeakyReLU(negative_slope=0.2)
    )
    (conv32): Linear(
      (linear): Linear(in_features=128, out_features=64, bias=True)
      (norm1): LayerNorm((64,), eps=1e-05, elementwise_affine=True)
      (norm2): BatchNorm1d(64, eps=1e-05, momentum=0.1, affine=True, track_running_stats=True)
      (act): LeakyReLU(negative_slope=0.2)
    )
    (conv42): Linear(
      (linear): Linear(in_features=256, out_features=64, bias=True)
      (norm1): LayerNorm((64,), eps=1e-05, elementwise_affine=True)
      (norm2): BatchNorm1d(64, eps=1e-05, momentum=0.1, affine=True, track_running_stats=True)
      (act): LeakyReLU(negative_slope=0.2)
    )
    (conv2): Linear(
      (linear): Linear(in_features=64, out_features=64, bias=True)
      (norm1): LayerNorm((64,), eps=1e-05, elementwise_affine=True)
      (norm2): BatchNorm1d(64, eps=1e-05, momentum=0.1, affine=True, track_running_stats=True)
      (act): LeakyReLU(negative_slope=0.2)
    )
    (conv01): Linear(
      (linear): Linear(in_features=64, out_features=64, bias=True)
      (norm1): LayerNorm((64,), eps=1e-05, elementwise_affine=True)
      (norm2): BatchNorm1d(64, eps=1e-05, momentum=0.1, affine=True, track_running_stats=True)
      (act): LeakyReLU(negative_slope=0.2)
    )
    (conv21): Linear(
      (linear): Linear(in_features=64, out_features=64, bias=True)
      (norm1): LayerNorm((64,), eps=1e-05, elementwise_affine=True)
      (norm2): BatchNorm1d(64, eps=1e-05, momentum=0.1, affine=True, track_running_stats=True)
      (act): LeakyReLU(negative_slope=0.2)
    )
    (conv31): Linear(
      (linear): Linear(in_features=128, out_features=64, bias=True)
      (norm1): LayerNorm((64,), eps=1e-05, elementwise_affine=True)
      (norm2): BatchNorm1d(64, eps=1e-05, momentum=0.1, affine=True, track_running_stats=True)
      (act): LeakyReLU(negative_slope=0.2)
    )
    (conv41): Linear(
      (linear): Linear(in_features=256, out_features=64, bias=True)
      (norm1): LayerNorm((64,), eps=1e-05, elementwise_affine=True)
      (norm2): BatchNorm1d(64, eps=1e-05, momentum=0.1, affine=True, track_running_stats=True)
      (act): LeakyReLU(negative_slope=0.2)
    )
    (conv1): Linear(
      (linear): Linear(in_features=64, out_features=64, bias=True)
      (norm1): LayerNorm((64,), eps=1e-05, elementwise_affine=True)
      (norm2): BatchNorm1d(64, eps=1e-05, momentum=0.1, affine=True, track_running_stats=True)
      (act): LeakyReLU(negative_slope=0.2)
    )
    (conv10): Linear(
      (linear): Linear(in_features=64, out_features=64, bias=True)
      (norm1): LayerNorm((64,), eps=1e-05, elementwise_affine=True)
      (norm2): BatchNorm1d(64, eps=1e-05, momentum=0.1, affine=True, track_running_stats=True)
      (act): LeakyReLU(negative_slope=0.2)
    )
    (conv20): Linear(
      (linear): Linear(in_features=64, out_features=64, bias=True)
      (norm1): LayerNorm((64,), eps=1e-05, elementwise_affine=True)
      (norm2): BatchNorm1d(64, eps=1e-05, momentum=0.1, affine=True, track_running_stats=True)
      (act): LeakyReLU(negative_slope=0.2)
    )
    (conv30): Linear(
      (linear): Linear(in_features=128, out_features=64, bias=True)
      (norm1): LayerNorm((64,), eps=1e-05, elementwise_affine=True)
      (norm2): BatchNorm1d(64, eps=1e-05, momentum=0.1, affine=True, track_running_stats=True)
      (act): LeakyReLU(negative_slope=0.2)
    )
    (conv40): Linear(
      (linear): Linear(in_features=256, out_features=64, bias=True)
      (norm1): LayerNorm((64,), eps=1e-05, elementwise_affine=True)
      (norm2): BatchNorm1d(64, eps=1e-05, momentum=0.1, affine=True, track_running_stats=True)
      (act): LeakyReLU(negative_slope=0.2)
    )
    (conv0): Linear(
      (linear): Linear(in_features=64, out_features=64, bias=True)
      (norm1): LayerNorm((64,), eps=1e-05, elementwise_affine=True)
      (norm2): BatchNorm1d(64, eps=1e-05, momentum=0.1, affine=True, track_running_stats=True)
      (act): LeakyReLU(negative_slope=0.2)
    )
  )
  (fuse5): Fuse(
    (conv04): Linear(
      (linear): Linear(in_features=64, out_features=256, bias=True)
      (norm1): LayerNorm((256,), eps=1e-05, elementwise_affine=True)
      (norm2): BatchNorm1d(256, eps=1e-05, momentum=0.1, affine=True, track_running_stats=True)
      (act): LeakyReLU(negative_slope=0.2)
    )
    (conv14): Linear(
      (linear): Linear(in_features=64, out_features=256, bias=True)
      (norm1): LayerNorm((256,), eps=1e-05, elementwise_affine=True)
      (norm2): BatchNorm1d(256, eps=1e-05, momentum=0.1, affine=True, track_running_stats=True)
      (act): LeakyReLU(negative_slope=0.2)
    )
    (conv24): Linear(
      (linear): Linear(in_features=64, out_features=256, bias=True)
      (norm1): LayerNorm((256,), eps=1e-05, elementwise_affine=True)
      (norm2): BatchNorm1d(256, eps=1e-05, momentum=0.1, affine=True, track_running_stats=True)
      (act): LeakyReLU(negative_slope=0.2)
    )
    (conv34): Linear(
      (linear): Linear(in_features=128, out_features=256, bias=True)
      (norm1): LayerNorm((256,), eps=1e-05, elementwise_affine=True)
      (norm2): BatchNorm1d(256, eps=1e-05, momentum=0.1, affine=True, track_running_stats=True)
      (act): LeakyReLU(negative_slope=0.2)
    )
    (conv4): Linear(
      (linear): Linear(in_features=256, out_features=256, bias=True)
      (norm1): LayerNorm((256,), eps=1e-05, elementwise_affine=True)
      (norm2): BatchNorm1d(256, eps=1e-05, momentum=0.1, affine=True, track_running_stats=True)
      (act): LeakyReLU(negative_slope=0.2)
    )
    (conv03): Linear(
      (linear): Linear(in_features=64, out_features=128, bias=True)
      (norm1): LayerNorm((128,), eps=1e-05, elementwise_affine=True)
      (norm2): BatchNorm1d(128, eps=1e-05, momentum=0.1, affine=True, track_running_stats=True)
      (act): LeakyReLU(negative_slope=0.2)
    )
    (conv13): Linear(
      (linear): Linear(in_features=64, out_features=128, bias=True)
      (norm1): LayerNorm((128,), eps=1e-05, elementwise_affine=True)
      (norm2): BatchNorm1d(128, eps=1e-05, momentum=0.1, affine=True, track_running_stats=True)
      (act): LeakyReLU(negative_slope=0.2)
    )
    (conv23): Linear(
      (linear): Linear(in_features=64, out_features=128, bias=True)
      (norm1): LayerNorm((128,), eps=1e-05, elementwise_affine=True)
      (norm2): BatchNorm1d(128, eps=1e-05, momentum=0.1, affine=True, track_running_stats=True)
      (act): LeakyReLU(negative_slope=0.2)
    )
    (conv43): Linear(
      (linear): Linear(in_features=256, out_features=128, bias=True)
      (norm1): LayerNorm((128,), eps=1e-05, elementwise_affine=True)
      (norm2): BatchNorm1d(128, eps=1e-05, momentum=0.1, affine=True, track_running_stats=True)
      (act): LeakyReLU(negative_slope=0.2)
    )
    (conv3): Linear(
      (linear): Linear(in_features=128, out_features=128, bias=True)
      (norm1): LayerNorm((128,), eps=1e-05, elementwise_affine=True)
      (norm2): BatchNorm1d(128, eps=1e-05, momentum=0.1, affine=True, track_running_stats=True)
      (act): LeakyReLU(negative_slope=0.2)
    )
    (conv02): Linear(
      (linear): Linear(in_features=64, out_features=64, bias=True)
      (norm1): LayerNorm((64,), eps=1e-05, elementwise_affine=True)
      (norm2): BatchNorm1d(64, eps=1e-05, momentum=0.1, affine=True, track_running_stats=True)
      (act): LeakyReLU(negative_slope=0.2)
    )
    (conv12): Linear(
      (linear): Linear(in_features=64, out_features=64, bias=True)
      (norm1): LayerNorm((64,), eps=1e-05, elementwise_affine=True)
      (norm2): BatchNorm1d(64, eps=1e-05, momentum=0.1, affine=True, track_running_stats=True)
      (act): LeakyReLU(negative_slope=0.2)
    )
    (conv32): Linear(
      (linear): Linear(in_features=128, out_features=64, bias=True)
      (norm1): LayerNorm((64,), eps=1e-05, elementwise_affine=True)
      (norm2): BatchNorm1d(64, eps=1e-05, momentum=0.1, affine=True, track_running_stats=True)
      (act): LeakyReLU(negative_slope=0.2)
    )
    (conv42): Linear(
      (linear): Linear(in_features=256, out_features=64, bias=True)
      (norm1): LayerNorm((64,), eps=1e-05, elementwise_affine=True)
      (norm2): BatchNorm1d(64, eps=1e-05, momentum=0.1, affine=True, track_running_stats=True)
      (act): LeakyReLU(negative_slope=0.2)
    )
    (conv2): Linear(
      (linear): Linear(in_features=64, out_features=64, bias=True)
      (norm1): LayerNorm((64,), eps=1e-05, elementwise_affine=True)
      (norm2): BatchNorm1d(64, eps=1e-05, momentum=0.1, affine=True, track_running_stats=True)
      (act): LeakyReLU(negative_slope=0.2)
    )
    (conv01): Linear(
      (linear): Linear(in_features=64, out_features=64, bias=True)
      (norm1): LayerNorm((64,), eps=1e-05, elementwise_affine=True)
      (norm2): BatchNorm1d(64, eps=1e-05, momentum=0.1, affine=True, track_running_stats=True)
      (act): LeakyReLU(negative_slope=0.2)
    )
    (conv21): Linear(
      (linear): Linear(in_features=64, out_features=64, bias=True)
      (norm1): LayerNorm((64,), eps=1e-05, elementwise_affine=True)
      (norm2): BatchNorm1d(64, eps=1e-05, momentum=0.1, affine=True, track_running_stats=True)
      (act): LeakyReLU(negative_slope=0.2)
    )
    (conv31): Linear(
      (linear): Linear(in_features=128, out_features=64, bias=True)
      (norm1): LayerNorm((64,), eps=1e-05, elementwise_affine=True)
      (norm2): BatchNorm1d(64, eps=1e-05, momentum=0.1, affine=True, track_running_stats=True)
      (act): LeakyReLU(negative_slope=0.2)
    )
    (conv41): Linear(
      (linear): Linear(in_features=256, out_features=64, bias=True)
      (norm1): LayerNorm((64,), eps=1e-05, elementwise_affine=True)
      (norm2): BatchNorm1d(64, eps=1e-05, momentum=0.1, affine=True, track_running_stats=True)
      (act): LeakyReLU(negative_slope=0.2)
    )
    (conv1): Linear(
      (linear): Linear(in_features=64, out_features=64, bias=True)
      (norm1): LayerNorm((64,), eps=1e-05, elementwise_affine=True)
      (norm2): BatchNorm1d(64, eps=1e-05, momentum=0.1, affine=True, track_running_stats=True)
      (act): LeakyReLU(negative_slope=0.2)
    )
    (conv10): Linear(
      (linear): Linear(in_features=64, out_features=64, bias=True)
      (norm1): LayerNorm((64,), eps=1e-05, elementwise_affine=True)
      (norm2): BatchNorm1d(64, eps=1e-05, momentum=0.1, affine=True, track_running_stats=True)
      (act): LeakyReLU(negative_slope=0.2)
    )
    (conv20): Linear(
      (linear): Linear(in_features=64, out_features=64, bias=True)
      (norm1): LayerNorm((64,), eps=1e-05, elementwise_affine=True)
      (norm2): BatchNorm1d(64, eps=1e-05, momentum=0.1, affine=True, track_running_stats=True)
      (act): LeakyReLU(negative_slope=0.2)
    )
    (conv30): Linear(
      (linear): Linear(in_features=128, out_features=64, bias=True)
      (norm1): LayerNorm((64,), eps=1e-05, elementwise_affine=True)
      (norm2): BatchNorm1d(64, eps=1e-05, momentum=0.1, affine=True, track_running_stats=True)
      (act): LeakyReLU(negative_slope=0.2)
    )
    (conv40): Linear(
      (linear): Linear(in_features=256, out_features=64, bias=True)
      (norm1): LayerNorm((64,), eps=1e-05, elementwise_affine=True)
      (norm2): BatchNorm1d(64, eps=1e-05, momentum=0.1, affine=True, track_running_stats=True)
      (act): LeakyReLU(negative_slope=0.2)
    )
    (conv0): Linear(
      (linear): Linear(in_features=64, out_features=64, bias=True)
      (norm1): LayerNorm((64,), eps=1e-05, elementwise_affine=True)
      (norm2): BatchNorm1d(64, eps=1e-05, momentum=0.1, affine=True, track_running_stats=True)
      (act): LeakyReLU(negative_slope=0.2)
    )
  )
  (lrelu): LeakyReLU(negative_slope=0.2)
))
2022-12-28 03:36:13,252 - Model - INFO - ('conv8', Linear(
  (linear): Linear(in_features=896, out_features=512, bias=True)
  (norm1): LayerNorm((512,), eps=1e-05, elementwise_affine=True)
  (norm2): BatchNorm1d(512, eps=1e-05, momentum=0.1, affine=True, track_running_stats=True)
  (act): LeakyReLU(negative_slope=0.2)
))
2022-12-28 03:36:13,252 - Model - INFO - ('conv9', Linear(
  (linear): Linear(in_features=512, out_features=256, bias=True)
  (norm1): LayerNorm((256,), eps=1e-05, elementwise_affine=True)
  (norm2): BatchNorm1d(256, eps=1e-05, momentum=0.1, affine=True, track_running_stats=True)
  (act): LeakyReLU(negative_slope=0.2)
))
2022-12-28 03:36:13,252 - Model - INFO - ('conv10', Linear(
  (linear): Linear(in_features=256, out_features=128, bias=True)
  (norm1): LayerNorm((128,), eps=1e-05, elementwise_affine=True)
  (norm2): BatchNorm1d(128, eps=1e-05, momentum=0.1, affine=True, track_running_stats=True)
  (act): LeakyReLU(negative_slope=0.2)
))
2022-12-28 03:36:13,252 - Model - INFO - ('conv11', Linear(in_features=128, out_features=50, bias=True))
2022-12-28 03:36:13,252 - Model - INFO - ('drop1', Dropout(p=0.5, inplace=False))
2022-12-28 03:36:13,253 - Model - INFO - ('drop2', Dropout(p=0.5, inplace=False))
2022-12-28 03:36:13,253 - Model - INFO - No existing model, starting training from scratch...
…
